Financial Risk for Loan Approval/ML_Model_Loan_approval.pth (torch, 43316 bytes, 7 tensors)

weight f4 [32, 34]
000000 ab 3d d4 be 22 f8 00 c0 ab 15 0c c0 2f 89 25 3f
       -0.414533 -2.0151448 -2.1888225 0.6466245
000010 c5 e5 ee bf e1 d6 b7 be fd 25 b0 bf 5d 0d 01 40
       -1.866387 -0.35906127 -1.3761593 2.0164406
000020 4c d7 e9 3e de cb 93 bf 2e d1 b0 bf 3a e9 2f 3e
       0.4567207 -1.154659 -1.3813837 0.17178813
000030 1b 38 3d 40 e6 ad 97 bf f5 01 33 3f dd c0 12 bf
       2.9565494 -1.1849945 0.6992486 -0.57325536
000040 57 87 3b bf c8 7a ee be 1d 21 30 40 bf 5c 88 3f
       -0.7325339 -0.4657805 2.752021 1.0653304
000050 c8 f6 eb bf 1b 99 a7 be b5 c7 cd 3e c8 d9 8b c0
       -1.8434687 -0.32733998 0.40191427 -4.3703346
000060 3c c1 67 bf 28 ed 73 3e a7 01 33 c0 01 2d b8 bf
       -0.9052923 0.23820937 -2.7969759 -1.4388734
000070 b8 01 de bf a4 d2 9f be 97 c3 c0 3e af e6 ba 3f
       -1.7344275 -0.31215394 0.37649223 1.4601649
000080 29 48 92 3f 63 61 28 40 38 b1 8b 3e 86 c1 8d bf
       1.1428272 2.630944 0.27283645 -1.1074684
000090 81 fc a6 3f f2 43 53 bf ac 5a 06 bf 19 90 e5 bf
       1.3045808 -0.8252555 -0.52482104 -1.79346
0000a0 b2 1c 34 3e e8 21 08 c0 eb 0b 4a bf 03 88 b9 bd
       0.17589071 -2.1270695 -0.78924435 -0.09059145
0000b0 79 40 00 bf c0 07 c5 be d5 7c 45 3f c4 e7 b3 be
       -0.5009838 -0.38482475 0.77143604 -0.3513776
0000c0 e2 d8 a6 bd a0 5d 00 c0 d1 15 90 3f f4 b0 f9 bf
       -0.08146836 -2.0057144 1.1256658 -1.9507127
0000d0 21 49 e3 bf 2d 57 25 c0 b0 b4 06 3f e0 95 60 3f
       -1.7756692 -2.5834458 0.5261946 0.8772869
0000e0 32 9d 79 3f 5d 39 02 3f e2 e1 87 be 97 42 05 c0
       0.97505486 0.5086878 -0.26539522 -2.0821893
0000f0 32 30 b0 40 90 0d 89 3d a2 a7 80 3e 39 51 da 3e
       5.505883 0.0669204 0.25127894 0.42640093
000100 5f 54 0b bf 0b 0d 90 c0 8d 72 d8 be 08 fb 3f c0
       -0.54425615 -4.501592 -0.42274895 -2.9996967
000110 51 27 33 3e 53 04 c8 bf 9b 42 ed 3d 3b 07 42 40
       0.17495467 -1.562632 0.115849696 3.0316913
000120 eb 8a d4 be f4 42 e4 bf b8 7c ce bf 41 9b 12 40
       -0.41512236 -1.7832932 -1.6131811 2.290726
000130 09 2e 80 bf 6b ae 9f be 0b 82 9d bf e3 1b 21 bf
       -1.0014049 -0.31187758 -1.2305311 -0.62933177
000140 ed 1b 06 40 bf dd a6 bf 15 6f fb 3e 8e ae 49 3e
       2.0954545 -1.3036422 0.49108186 0.19695494
000150 ec a1 1c 3f 14 ff 02 40 8c 1b 0c c0 7a bf 86 3f
       0.61184573 2.0468187 -2.1891813 1.0527184
000160 a7 38 90 be bb 37 02 c0 06 1b 85 3f 8e 3b a8 3d
       -0.28168222 -2.0346515 1.0398872 0.08214484
000170 29 5b 2e c0 fb 44 e5 be a8 fb ed bf a5 7d 0a 40
       -2.724314 -0.4477919 -1.8592424 2.1639187
000180 ce 42 8d 3f dd f4 e0 bf 8e 89 0a c0 ff 4c 21 40
       1.1036012 -1.7574726 -2.1646457 2.5203245
000190 d6 2e 6c 3f d4 f0 3f 40 61 16 c0 3d a8 fd 9d 3f
       0.92258966 2.999074 0.093792684 1.2343035
0001a0 6c 63 e2 bf 31 04 82 3f ae ad bb be 41 23 9b 3e
       -1.7686591 1.0157529 -0.36655945 0.30300334
0001b0 fc 92 b1 3f fa ea 84 3f c8 8c b1 3f f9 d9 2f c0
       1.3872981 1.0384209 1.3871088 -2.747679
0001c0 71 de e6 be ab fb 46 40 c0 87 89 3d 83 b0 84 3e
       -0.45091584 3.1091106 0.067153454 0.25915918
0001d0 38 f2 b6 bd 92 c1 70 bf 89 c9 c4 3d ba bf a0 3f
       -0.08932918 -0.94045365 0.09608752 1.255851
0001e0 86 03 0b bf 24 99 2c bf cd a1 d9 3f bb 27 41 bf
       -0.5430225 -0.67421174 1.7002503 -0.7545125
0001f0 e4 04 88 3f 4b e8 60 bf 4b 02 f5 be 32 fe 5e 3c
       1.0626493 -0.8785445 -0.47853312 0.01361041
000200 29 8e 7d c0 da f1 63 bf 33 9e 90 bf d9 84 80 be
       -3.9618018 -0.8904091 -1.1298279 -0.25101355
000210 16 f8 2f 3d 57 d8 ea 3f 98 15 f8 3f d0 f6 54 40
       0.042961203 1.8347272 1.938159 3.3275642
000220 c4 50 f0 3e 00 eb bd bf 7b 95 8b 3e bd 5a 27 be
       0.4693662 -1.4837341 0.27262482 -0.16343208
000230 6f ff 75 c0 81 fb 7e bf cf 3e 60 bf 94 ce 1c 40
       -3.8437154 -0.99602515 -0.8759584 2.4501085
000240 69 b3 33 3e c0 90 91 3f ad bf 05 bf 6e 60 d4 3f
       0.17548908 1.1372299 -0.522456 1.6591928
000250 bb d2 bc 3e b3 54 21 3f 20 6e 21 3e b3 62 76 bf
       0.36879525 0.63019866 0.15764666 -0.96244353
000260 81 fd 2d 3f 54 6d 2d 3f 64 6f 90 bf 69 81 8c bd
       0.6796494 0.67744946 -1.1283994 -0.068606205
000270 41 c5 3c 40 f8 31 c7 be 3f 5d 6c bf b4 50 37 c0
       2.9495394 -0.3890531 -0.9232978 -2.8643007
000280 16 ec 35 bf 68 58 d0 3e 34 a4 26 c0 55 83 ca bf
       -0.71063364 0.4069245 -2.6037722 -1.5821329
000290 f1 f8 91 be e0 97 c2 bf d7 94 95 3f 33 75 26 40
       -0.2851024 -1.5202599 1.1686047 2.6009033
0002a0 a4 02 17 3f a0 de 05 40 14 69 dd 3e 4b 07 1f 40
       0.58988404 2.091713 0.4324423 2.4848201
0002b0 99 c2 af bf 80 b9 1a 40 88 76 1a c0 6c 80 1f bf
       -1.3731261 2.417572 -2.4134846 -0.6230533
0002c0 a0 96 9c 3f 1b 34 15 40 fc 5a 3f 3f bc 3d 22 3f
       1.2233467 2.3313053 0.74748206 0.6337545
0002d0 27 b5 a4 be 2f bc 68 3e 25 94 c1 bd 04 98 b7 bf
       -0.32169458 0.22728036 -0.094520845 -1.4343266
0002e0 6b fe 82 be e3 71 50 3f 39 39 40 3f 12 b4 09 40
       -0.2558473 0.8142378 0.75087315 2.1516156
0002f0 7e 23 e8 3e 82 b8 55 3f 6c 1c dc be ab 68 94 3e
       0.45339578 0.8348466 -0.42990434 0.28986105
000300 d7 10 c5 3e 1a eb 98 bd 62 5d 9f 3d 96 76 e5 3e
       0.3848941 -0.07466717 0.07781483 0.44817036
000310 43 bd 1c c0 34 1d 6c 3f 78 05 2d 3f 0f 6b c6 bf
       -2.4490516 0.9223206 0.6758647 -1.5501422
000320 41 6a 83 bf db 24 b5 40 c6 e2 8c 3f 57 56 0a 40
       -1.0266801 5.660749 1.1006706 2.1615198
000330 ee 3b 2f 40 ce d6 c9 3f 5f 5c 98 c0 31 2e 45 3d
       2.7380328 1.5768678 -4.761276 0.048139755
000340 11 2d c7 bf a7 6c 1c bf b2 b6 22 3f 70 d1 9c 3f
       -1.5560628 -0.6110329 0.6356002 1.2251415
000350 92 e6 25 3f ce 67 8d 3f 91 77 92 be 0d db 39 3f
       0.6480495 1.1047304 -0.28606847 0.7259987
000360 90 df 85 3f 81 1b 02 3e 10 69 66 bf d9 c2 c1 3e
       1.0458851 0.12705804 -0.9000406 0.3784397
000370 d3 4b 46 be e6 c1 92 3f 74 1d e8 3e bd 30 df 3f
       -0.19364862 1.1465423 0.4533497 1.7436749
000380 5f 6a a5 3e 95 c4 28 c0 23 3a 17 3f 4b 56 aa 3e
       0.32307717 -2.6369984 0.59073085 0.3326896
000390 67 f7 ff 3d af 2d 9a 3d 01 a8 9a c0 e7 0d 30 bf
       0.1249836 0.07528245 -4.8330083 -0.68771213
0003a0 1d a8 d0 3f 98 68 8a bf ea 55 01 3f ad 0b f6 3e
       1.6301304 -1.081317 0.5052172 0.48055783
0003b0 15 0d ea 3f dc 35 94 40 c1 af 36 c0 f8 d6 c6 bf
       1.8285242 4.6315746 -2.8544772 -1.5534353
0003c0 f5 90 7d 3e 78 62 bf bf 80 0b 4b bf 62 ef e1 bf
       0.24762328 -1.4951925 -0.7931442 -1.7651179
0003d0 65 7c db be 4f 25 0e bf 90 0d 00 bd a5 cf 3c be
       -0.42868343 -0.5552568 -0.031262934 -0.18438585
0003e0 65 34 b1 3e 8b f8 f1 be a4 69 4a 40 2d 48 b9 3e
       0.34610286 -0.47259936 3.1626978 0.36187878
0003f0 ea 34 da bf 19 d8 a4 3f ad 24 fe bd bc 07 34 3e
       -1.7047398 1.2878448 -0.12409339 0.17581075

bias f4 [32]
000000 5d 21 07 c0 58 3f 5f bf 75 a8 19 c0 14 fb ea be
       -2.1114113 -0.8720603 -2.4009068 -0.45894682
000010 a5 75 20 bf ca 3d d7 bf a3 6f d0 3e 85 5f 7f c0
       -0.6267951 -1.6815732 0.40710172 -3.990205
000020 06 d1 ec bf ff 2c 66 c0 df d1 b1 bf 99 fe ae bf
       -1.8501289 -3.5964963 -1.3892173 -1.3671447
000030 38 b5 1d c0 76 37 37 bf 1f 2a ab bf 00 56 52 c0
       -2.4641857 -0.71569 -1.3372229 -3.286499
000040 ad cb b8 bf e6 48 9e c0 ab 8e 28 c0 31 c0 25 bf
       -1.4437157 -4.9463987 -2.6337078 -0.64746386
000050 44 2d 35 be f9 ab 8f c0 fd b6 3c bf 8a 83 08 c0
       -0.17693049 -4.4897428 -0.7371672 -2.1330285
000060 71 60 78 3e 0b 39 9f bf 5f 12 a6 bf 73 6c f7 be
       0.2425554 -1.2439283 -1.2974356 -0.48324928
000070 fe 8e a1 3d af ba 74 c0 cb 37 47 c0 a4 f8 38 c0
       0.07888602 -3.8238943 -3.1127803 -2.8901758

weight f4 [128, 32]
000000 3a 1f 17 40 6a d2 b8 bf 59 48 36 3f 51 3c 49 3f
       2.361281 -1.4439213 0.71204144 0.7860766
000010 2d 48 c4 3f b2 d7 07 3f 22 73 45 bf a1 6e 1f bf
       1.5334526 0.530635 -0.77128804 -0.6227818
000020 6f ef ee 3f ca ae 16 c0 93 2b d9 bf cb e3 ca bf
       1.8666819 -2.3544183 -1.6966423 -1.5850767
000030 36 64 63 3f 09 0d 87 3e 96 fb b5 3f 48 c1 ed be
       0.88824785 0.26377133 1.4217403 -0.46436524
000040 a8 8b 56 40 33 1a 65 bf 46 eb 3f bf 0a 87 5e bf
       3.352274 -0.894931 -0.74968374 -0.86924803
000050 53 4c 7a 3f 19 d7 05 40 c1 8a d2 3c 71 4b a8 bf
       0.9777271 2.0912535 0.025700929 -1.3148023
000060 33 7d aa 3f 0a ec 87 3f 17 8c 72 3f a0 b0 10 3f
       1.3319458 1.0618908 0.9474501 0.5651951
000070 13 2b 02 40 65 ef 46 40 cf 5b 66 c0 8e ea 57 3e
       2.033879 3.1083615 -3.5993536 0.2108557
000080 2f 97 0a 40 cd 0b f5 bf ec 3e a8 be 8a e9 0f 40
       2.1654775 -1.9144226 -0.32860506 2.248629
000090 67 c3 1c bb 6d f7 d9 3f 3f be bf 3f df ba 04 c0
       -0.002392018 1.7028633 1.4979934 -2.0739057
0000a0 35 1e 31 bd b7 78 40 3e cd bc 90 bf bf 84 6b bf
       -0.0432417 0.18796049 -1.1307617 -0.9199943
0000b0 ba e8 f4 bf 66 8a 02 40 f0 40 03 40 f0 14 28 c0
       -1.9133523 2.0396972 2.0508385 -2.626278
0000c0 ec 79 97 bf 0a dd 54 bf 93 b5 97 bf f8 f8 3b bf
       -1.1834083 -0.8314978 -1.1852287 -0.7342677
0000d0 30 2b 91 3f 15 6f 5b 3f eb 9d b2 bf 66 66 8a be
       1.1341305 0.8571637 -1.3954443 -0.2703125
0000e0 35 46 f1 3f 3d 4f 94 3f 2a 97 46 bf 57 4c 0f bd
       1.884955 1.1586682 -0.7757441 -0.034984913
0000f0 9b 67 2c 40 a3 32 5a 3d ed e0 12 c0 f6 1d 1f 40
       2.6938236 0.053270947 -2.2949784 2.4862037
000100 26 60 77 bf 62 46 99 3f 87 4b 1f c0 18 ca d2 bf
       -0.96631086 1.1974604 -2.4889848 -1.6467924
000110 8c 57 21 c0 89 f2 a6 be 92 d4 13 c0 e6 da 80 3e
       -2.5209684 -0.32606915 -2.3098493 0.25167006
000120 0c 08 48 c0 f2 54 f5 3f 81 e0 93 3f 46 2c d2 3f
       -3.1254911 1.9166548 1.1552888 1.6419761
000130 ff 50 b4 3f 68 d4 11 c0 f9 e9 07 c0 2f c9 d5 3f
       1.4087218 -2.2785892 -2.1236556 1.6702021
000140 34 3b a6 bf e9 ee 33 40 b5 90 94 3d de b7 5b 3f
       -1.2986817 2.811457 0.07254163 0.85827434
000150 f2 f2 0c c0 99 d3 5d c0 5c b1 82 bf a1 13 0e 3f
       -2.2023282 -3.46604 -1.0210376 0.554987
000160 71 c7 50 3f 0a 51 71 bf 9a 3c 7f c0 32 7e d1 bf
       0.81554323 -0.9426428 -3.9880738 -1.6366637
000170 e4 3a 2e c0 cb c9 5d c0 39 11 a1 3f 27 92 78 c0
       -2.7223444 -3.4654415 1.2583381 -3.8839204
000180 f1 14 b3 bf 2a 95 2c c0 42 6d 18 40 d4 d4 62 bf
       -1.3990766 -2.6966043 2.3816686 -0.88606
000190 1e c9 58 3f 2e a3 09 40 a2 bb ef bf 22 f6 ea 3d
       0.8468188 2.1505847 -1.8729136 0.11472727
0001a0 a6 ff be bf 81 1e 1b c0 9f fd de 3e c6 22 99 3f
       -1.4921768 -2.4237368 0.43552873 1.1963737
0001b0 c9 40 b1 bf e5 cd 94 3f ff 81 c0 3f f7 3f 12 be
       -1.3847896 1.1625334 1.5039672 -0.14282213
0001c0 ce ef 0c bf b6 4b a3 bf 13 65 ca be 88 73 08 c0
       -0.5505341 -1.275748 -0.39530239 -2.1320515
0001d0 a2 51 82 bf fe 13 6b bf 71 f7 80 3f 0f bf b2 3f
       -1.0181162 -0.9182738 1.0075513 1.3964556
0001e0 21 3c 1d bf 94 e2 01 3f b3 ce 57 bf 56 c4 8e 3f
       -0.61419874 0.50736356 -0.8429977 1.1153667
0001f0 cb 19 01 3f 4e 8f 53 3f 5d fe 98 bf 88 13 79 3f
       0.5042998 0.8264054 -1.1952626 0.9729543
000200 c7 34 83 3f 1c 4c 07 c0 8e 87 92 3f 5d 40 03 3f
       1.0250481 -2.1140203 1.1447618 0.51270086
000210 fe 25 47 3f 52 31 41 bf f9 77 90 be e7 18 cf bf
       0.77792346 -0.7546588 -0.28216532 -1.6179475
000220 a3 9f 18 40 50 85 97 bf 74 97 99 bf 2c 3a 9a bf
       2.3847435 -1.1837559 -1.1999345 -1.2049003
000230 90 3d b9 bf 3e 8d 15 40 c4 ff 09 40 1f 2c f8 bf
       -1.4471912 2.3367457 2.1562357 -1.9388465
000240 49 3f 23 3f fc 72 8c bd 90 5b 22 bf 4a 5f 5a bf
       0.6376844 -0.06857869 -0.63420963 -0.8530165
000250 dd 1c be 3e 25 8f 3f 40 b6 ab d8 3c d2 c1 3c bf
       0.37131396 2.9931118 0.026449066 -0.73733246
000260 6f 77 9b 3e 30 fb d6 3f 73 b1 76 3f 2d b8 59 3f
       0.30364558 1.6795406 0.96364516 0.85046655
000270 d9 e6 67 3f 08 df 7d 40 95 ce fe bf 06 db 43 3f
       0.9058662 3.9667377 -1.9906794 0.7650608
000280 2e 5d 83 3f 59 84 84 bf 91 52 90 bf 22 52 eb 3f
       1.0262811 -1.0352889 -1.1275197 1.838444
000290 fa 46 f7 3f c4 b5 e3 3f ee 46 7d bf a7 63 6f bf
       1.9318535 1.7789845 -0.98936355 -0.9351143
0002a0 9f a4 27 3f 12 8e 6b bf 9e 90 f5 bf e1 59 ac bf
       0.65485567 -0.9201366 -1.9184759 -1.3464929
0002b0 b1 24 f0 bf d3 d6 95 be 38 fc 47 bf d0 4d d8 3f
       -1.8761197 -0.2926546 -0.7811923 1.6898746
0002c0 10 b3 0c 40 4b ff 99 bf 97 0d 0e 3f d8 71 d5 bf
       2.198429 -1.2031034 0.55489486 -1.6675367
0002d0 f2 f2 57 be 4d 9d cf 3f b5 92 5a 3f e0 86 64 bf
       -0.2108877 1.6219879 0.8538011 -0.892683
0002e0 9c 60 d8 3f 07 cf d7 3f 48 55 b0 3f f6 bd bb 3f
       1.6904483 1.6860055 1.3776026 1.4667346
0002f0 33 fd ae 3f 54 f0 90 3e 75 98 ae bf fa 3e c7 be
       1.367102 0.28308356 -1.3640276 -0.38915235
000300 60 1f 2f bf 3e be e8 3d e8 0a a2 3f ba ba dc bf
       -0.6840725 0.11364411 1.2659578 -1.7244484
000310 ef 90 5d 3e 5d 5e d2 3f ba 10 96 3f 35 70 29 be
       0.21637319 1.6435047 1.1723855 -0.1654671
000320 b4 c8 81 3f 8b e9 e2 be 4d 8f 23 c0 f8 a7 68 bf
       1.0139375 -0.44318804 -2.5556214 -0.908813
000330 ba 34 53 c0 a8 3c 4c 3f 7e 1a 50 40 8e 9e 96 bf
       -3.3000932 0.79780054 3.251617 -1.1767137
000340 9c 6e 0e 40 5a 03 c0 3f 23 36 ca bf 0a 74 93 bf
       2.225501 1.5001023 -1.5797771 -1.1519787
000350 42 b0 43 3f a3 64 c9 3f 61 cb 36 3f da a7 e9 3e
       0.76440823 1.5733837 0.7140408 0.45635873
000360 11 7f 9e bd a8 77 82 3e 00 b9 9b 3d 32 d8 87 bf
       -0.0773908 0.25481915 0.07603645 -1.0612853
000370 7f e3 81 3f 21 3f 2c 40 fa 65 01 c0 d5 c1 b5 bf
       1.0147551 2.691353 -2.0218492 -1.4199778
000380 79 4c 60 3f 35 4d e5 bf a7 69 38 40 9b 2b a3 3f
       0.8761669 -1.7914187 2.8814485 1.2747682
000390 2f d2 24 40 0b a5 07 40 f0 b3 bf 3d 06 cc a2 bf
       2.5753286 2.1194484 0.09360492 -1.2718513
0003a0 24 ab 10 40 ee 76 0f 3f 43 ff 23 bf c8 24 13 c0
       2.2604456 0.5604085 -0.64061373 -2.29912
0003b0 ba 9c 59 bf d6 91 2b c0 91 6c 29 40 c6 c4 8b bf
       -0.8500477 -2.6807761 2.6472514 -1.0919425
0003c0 03 d0 3b 40 7f 97 a0 bf 43 78 14 bf 8c d4 dc bf
       2.934571 -1.2546233 -0.57996005 -1.7252364
0003d0 db 31 f9 bf 38 7f df 3f 3d 54 ea 3f 50 f6 c7 bd
       -1.946834 1.7460699 1.8306957 -0.09763777
0003e0 1a f0 18 3e ef e9 d5 3f c9 e1 0b 40 cb f4 b4 3e
       0.14935341 1.6712016 2.1856558 0.35343012
0003f0 69 bb 0b 40 ec f2 12 40 a9 27 70 bf c7 8a a7 bf
       2.1833136 2.2960768 -0.93810517 -1.3089226

bias f4 [128]
000000 43 f0 d2 bd 4d 74 a7 bf 89 04 42 3f 10 be 90 bf
       -0.102997325 -1.3082367 0.7578817 -1.1308002
000010 31 90 ce bf 51 56 5c c0 3c 00 dc bf d9 6b 6e bf
       -1.6137754 -3.4427683 -1.7187572 -0.9313331
000020 41 f4 03 c0 2e fa 19 c0 3b 4a 0c bf 1a 01 ad bf
       -2.061783 -2.4058948 -0.54800767 -1.3515961
000030 95 de 0d c0 89 a4 b1 bd 2e 67 6b bf 1a 92 39 bf
       -2.2167103 -0.08673961 -0.91954315 -0.7248856
000040 7f d6 1b c0 b2 2d cf 3d a7 27 16 be 33 48 9e be
       -2.4349668 0.101161376 -0.14663564 -0.3091446
000050 e1 9b 10 c0 57 37 a0 3f 4c 92 83 3f 5b 6c b1 be
       -2.259514 1.2516888 1.0279021 -0.3465298
000060 0f 83 f9 bf 27 d9 be bf 4c 7e 33 bd 98 ea b6 bf
       -1.9493121 -1.491002 -0.043821618 -1.4290342
000070 f1 6c 66 bf ba c9 b7 bf 5d 8e 88 bf 0e 0a 29 3d
       -0.9000998 -1.4358437 -1.0668446 0.041269355
000080 98 fc b5 bf 69 83 f9 bf fb 3e b7 bf d4 b7 de be
       -1.421771 -1.9493228 -1.4316095 -0.43499625
000090 bd c6 a5 be cd 46 ef 3e 7f 6f dd be fb ce 6b be
       -0.32378188 0.46733704 -0.43249127 -0.23028176
0000a0 9c 1f f6 bf f5 ed 14 c0 c0 ed 12 c0 dc 39 81 3c
       -1.9228396 -2.3270237 -2.295761 0.01577466
0000b0 c1 ee 27 c0 da 49 07 bf cd 09 c5 be f1 fb 68 bf
       -2.6239474 -0.52847064 -0.3848404 -0.9100943
0000c0 98 bd 7c be b3 c3 87 be 3f a9 68 bf 9a cc 5f be
       -0.246817 -0.26516494 -0.9088325 -0.21855393
0000d0 65 df 0d 3f 8e 5e de be 28 8f c3 bf 45 b5 97 bf
       0.55419 -0.43431515 -1.5278063 -1.1852194
0000e0 c1 4a e4 3c 96 4a 50 bf dd ac 17 c0 da cb 76 bf
       0.027867677 -0.8136381 -2.3699257 -0.964048
0000f0 5e d8 31 c0 49 9e f4 bf f2 2b 57 bf 82 b2 c8 be
       -2.778831 -1.9110805 -0.8405143 -0.3919869
000100 6f 9f 02 c0 5c f9 1b be e9 e6 cf bf 3b 55 a4 bf
       -2.040981 -0.15231842 -1.6242343 -1.283851
000110 9d 3b 2e c0 e5 12 08 c0 5a ab d4 bf 32 7a 62 bf
       -2.7223885 -2.1261532 -1.6614792 -0.88467705
000120 d2 da d6 bf 68 94 1d c0 22 80 c8 be d8 ef 4c bf
       -1.6785529 -2.462183 -0.39160258 -0.8005347
000130 12 66 73 bd 7f b5 6b be c4 fb ce bf 19 6c 13 bf
       -0.059423514 -0.23018454 -1.6170583 -0.5758682
000140 39 f8 2b 40 38 63 66 bf d3 87 24 c0 d1 4c d0 bf
       2.6870253 -0.89995146 -2.57079 -1.6273443
000150 97 fd b0 bf a9 3e b2 bf 65 33 10 c0 58 dd e7 3e
       -1.382739 -1.3925372 -2.2531369 0.4528606
000160 91 12 6c be 89 b1 8f bf aa cd 41 bf de ee 84 bf
       -0.23053958 -1.1226054 -0.75704443 -1.0385396
000170 14 4e be be 21 45 44 be 89 c8 ce be 1e 05 71 bf
       -0.37168944 -0.19166996 -0.4038737 -0.94148433
000180 c5 76 0b c0 02 90 d7 3d 1f 11 01 c0 af 64 55 bf
       -2.179124 0.10525514 -2.01667 -0.83356756
000190 fd a5 c9 bf c5 96 09 c0 07 55 cb bf fb 95 d3 bf
       -1.5753781 -2.1498272 -1.5885323 -1.6530145
0001a0 91 d5 09 bf 17 22 f9 be 18 e2 e6 bf 19 c0 c7 bf
       -0.538415 -0.4865882 -1.8037748 -1.5605499
0001b0 04 09 c8 3e f9 f4 43 bf 82 16 a0 be 9e 0b 67 bf
       0.39069378 -0.76545674 -0.31267172 -0.902521
0001c0 93 75 b7 3e 59 73 c3 bf 67 2f c7 bf b2 88 d6 bf
       0.3583189 -1.5269576 -1.5561341 -1.6760466
0001d0 a4 eb 23 40 3e a6 5b 3f 8c dc 47 bf 94 c9 da bf
       2.5612574 0.8580054 -0.780709 -1.7092767
0001e0 76 3e a0 bf c6 23 54 bf d6 9a 12 bf ce ed 11 bf
       -1.2519062 -0.82867086 -0.5726751 -0.57003486
0001f0 47 30 d8 bf 49 f2 90 3e 76 bf cf bf 4c 8d a4 bf
       -1.6889733 0.2830985 -1.6230304 -1.285562

weight f4 [32, 128]
000000 a7 a5 92 bf 9a f8 ca 3d e6 ed af bf cb f0 17 bf
       -1.1456803 0.09910698 -1.3744476 -0.59351796
000010 ee d6 8d bd 89 ed 01 be 55 30 e1 3e 97 48 57 bf
       -0.0692576 -0.12688269 0.43982187 -0.8409514
000020 93 d3 e2 be 97 d2 b3 3d 56 3c 62 3e dd eb b8 3c
       -0.44302043 0.08780401 0.22093329 0.022573406
000030 95 18 59 bf c8 5a d4 3f 0a 8c 57 3e 34 5e 61 bd
       -0.84803134 1.6590204 0.21049514 -0.05502148
000040 87 75 2a 3e 92 99 98 bf d7 aa b2 3d 9e 9d 5f 3c
       0.16646396 -1.1921866 0.08723991 0.013648419
000050 07 2a ad be cc ba 32 bf 04 3d 41 bf f9 99 38 bf
       -0.33821127 -0.6981628 -0.7548373 -0.72109944
000060 ab 43 4e be 60 7d ba be 60 bf 87 bf 8c e5 59 3f
       -0.20143001 -0.3642378 -1.0605278 0.85115886
000070 94 ab 45 be 4b 5f 23 be 26 dd 82 3b 0f 96 4c bf
       -0.19303733 -0.1595432 0.003993648 -0.7991647
000080 8e 22 46 3f da 30 25 bf 85 79 63 bd 59 2b 66 3d
       0.77396476 -0.64527667 -0.055535812 0.056193683
000090 85 4e 1c 3c f2 12 80 be 23 f5 4c be f6 d0 9c bf
       0.009540205 -0.25014454 -0.20015387 -1.225127
0000a0 46 43 4e be cb c8 89 bf 87 05 c7 3c bd ef 53 bd
       -0.2014285 -1.0764402 0.024294628 -0.051742304
0000b0 f9 d2 2e bf 5d 34 07 bf 0a 64 a8 be 14 b8 1b 3d
       -0.6829067 -0.52814275 -0.32888824 0.038017347
0000c0 7d 16 97 bf db f0 ce be a2 ff d1 be be 06 98 bd
       -1.1803738 -0.40418133 -0.41015345 -0.07423161
0000d0 c3 3a 26 bf 85 e7 41 bd 39 47 01 bf 16 3f 45 bf
       -0.64933413 -0.047339935 -0.504993 -0.77049387
0000e0 f7 8d 8f 3e 1f 79 0b 3e e4 07 2b bf f0 a3 0d bf
       0.28037998 0.13620423 -0.66808915 -0.55328274
0000f0 cf 61 87 bf ec 45 89 bf bf bb ce be 43 04 9f be
       -1.0576724 -1.0724463 -0.40377614 -0.3105794
000100 ea b1 a7 bd da eb 25 3d 2d 90 25 bd 91 da fa be
       -0.08188231 0.04050813 -0.0404207 -0.48994878
000110 a0 b1 85 be 4c 39 a6 be 7e 4a 23 3f 14 9c 3d bd
       -0.2611208 -0.3246559 0.6378554 -0.046291426
000120 39 d7 35 bf 4b dc ec be 8b a2 9e bf 78 d9 eb bc
       -0.7103153 -0.4626182 -1.2393354 -0.02879022
000130 9e 61 41 bf 10 21 e9 be ca 5a 57 3c c7 46 b5 be
       -0.75539577 -0.45533037 0.013144204 -0.3540556
000140 14 97 df bf 43 b5 27 3d 8a ac a2 3c 33 0f d8 be
       -1.746798 0.04094435 0.019857664 -0.42199096
000150 32 bd 13 bf f4 2b 94 be 10 53 b2 be 59 f0 0b 3f
       -0.57710564 -0.28939784 -0.34828997 0.54663616
000160 21 45 6f 3d af 0c 2e bd bc 2c 15 bf 61 12 fd be
       0.058415536 -0.042492565 -0.58271384 -0.49428084
000170 3f 1a ee bd fe 2f 39 bb 19 20 9b be 0c 87 0a bf
       -0.116261 -0.0028257365 -0.30297926 -0.54112315
000180 7a c9 23 bf 33 a3 07 bf d8 8c 25 bb 01 7e 1d 3e
       -0.63979304 -0.529834 -0.0025260951 0.15380098
000190 cf 50 f7 3e 3c ca 3f 3e b0 64 8e 3d c9 9e 75 bf
       0.4830384 0.1872949 0.06952798 -0.9594541
0001a0 6d 7e 9b bd fb 95 31 3d 3b 11 6a 3c aa 54 51 be
       -0.07592473 0.043355923 0.014286335 -0.20442453
0001b0 20 c5 a9 bf 43 96 1e 3f 04 f3 ae bd d9 a0 ed 3c
       -1.3263283 0.6194803 -0.08542445 0.029007362
0001c0 51 6e d8 bd 8f 8b 8b bf 29 a2 27 bf 48 ea 48 bf
       -0.10567916 -1.0901965 -0.6548181 -0.78482485
0001d0 97 5c 6d bf c0 8e 30 be cf 16 6f be 5c 10 57 3e
       -0.92719406 -0.17241955 -0.23348545 0.21002334
0001e0 f7 bc 99 3e 05 ee 19 bf b6 86 01 be 2d 4b 9f be
       0.3002698 -0.60128814 -0.12649044 -0.31112042
0001f0 d8 3e e6 bd 9a 4b 57 bf 44 c2 47 bf 42 d8 52 bd
       -0.11242455 -0.84099734 -0.780308 -0.05147577
000200 a5 e2 3c bf 1d 83 67 bf 79 c7 42 3d dc 1f 08 c0
       -0.7378333 -0.9043444 0.047553513 -2.1269445
000210 95 13 e5 be 8e d5 2e bf f0 47 a7 bf 91 df d7 be
       -0.44741502 -0.6829461 -1.3068829 -0.42162755
000220 e9 89 73 3e f8 db 04 bf 2e 4a 2e 3f d6 94 26 bf
       0.23783077 -0.51898146 0.6808194 -0.65070856
000230 d1 28 f3 3e 87 40 a7 bf 65 cf 6e bf d7 ac 7d be
       0.47492078 -1.3066567 -0.9328521 -0.24772964
000240 97 09 73 3e eb 2f 3b bf da cf 0c 3e 78 67 2e bd
       0.23734127 -0.7311999 0.13751164 -0.042579144
000250 bb 21 84 3e 67 a4 e7 be 28 e3 08 bf b8 19 2f bd
       0.25806984 -0.45242617 -0.5347161 -0.042749137
000260 fb 44 6b be d2 7f 7f bf cf 07 f3 bf 01 74 89 3f
       -0.22975533 -0.99804413 -1.8986758 1.0738527
000270 48 36 e8 3c 70 12 71 3f 55 4e 05 39 0f 00 9b 3e
       0.028346196 0.9416876 0.0001271305 0.30273482
000280 aa ca 13 3e 50 54 98 3e 1f 0d 4e 3e 2a ad a3 bd
       0.14432779 0.29751825 0.20122193 -0.07992013
000290 f1 19 95 be 12 b9 c4 bf 3e 51 e0 bd 58 55 70 bf
       -0.29121354 -1.5368979 -0.10952996 -0.93880224
0002a0 6f 21 44 3e 00 ec ab 3e 94 dd 4a bf 19 7e 52 bf
       0.19153379 0.3357849 -0.7924435 -0.8222366
0002b0 06 25 12 c0 5c 78 ef 3f 11 04 e4 bf c9 86 7c 3e
       -2.2835097 1.8708606 -1.7813741 0.24660791
0002c0 06 85 f1 bf 9a a4 5e bf 5b 98 14 3f 59 68 3f 3d
       -1.886872 -0.8696991 0.58044976 0.046730373
0002d0 e9 41 f7 be 34 09 14 bf 43 c1 52 3e e3 05 4e 3f
       -0.48292473 -0.5782654 0.20581536 0.8047773
0002e0 8a b0 91 bf 69 02 8f 3e 20 fe 4d bf be 97 93 3f
       -1.1382 0.27931526 -0.8046589 1.1530683
0002f0 09 9e 50 3f d2 13 0d 3f db 7b a0 3f 02 90 13 3d
       0.8149114 0.5510837 1.2537798 0.03602601
000300 7a c3 89 3d 52 8b 12 3f aa 44 2d bf ce 1b 03 3f
       0.06726737 0.57243836 -0.676829 0.512143
000310 d1 11 8d bf 0c 91 4b 3f c9 c5 6d bf 40 9d 4e 3d
       -1.1021062 0.795182 -0.9287992 0.050442934
000320 05 70 b5 be 35 c2 4d 3f 6f d2 24 bf 64 ea 23 3b
       -0.35437027 0.8037446 -0.64383596 0.0025011534
000330 98 d2 b6 3d 0e 94 34 bf bc b2 40 bf db ae 7f bf
       0.08926886 -0.70538414 -0.75272727 -0.99876183
000340 a9 3f 8f be fa cc 1c 3e 01 cf 58 bf 58 a3 a7 bf
       -0.27978256 0.15312567 -0.8469086 -1.3096724
000350 66 58 ba bf 84 fc da bf cc 03 b7 3e 0f 49 1b bf
       -1.4558227 -1.7108312 0.35745084 -0.60658354
000360 ae 53 93 3f 9b 42 39 3e e0 b8 9c 3e 30 75 4a bf
       1.1509912 0.18091814 0.30609798 -0.79085064
000370 1f d6 59 bd c9 a2 a2 bc 07 93 07 3f 9e b3 3a 3f
       -0.053182717 -0.019853013 0.5295872 0.72930324
000380 0b 18 c3 3e b9 66 70 3d c3 69 59 be 69 46 c2 3f
       0.3810428 0.058691714 -0.21231751 1.5177737
000390 91 7f 5c 3f e6 62 6c 3f fb dc 9a 3e a2 ce 31 bf
       0.8613215 0.9233841 0.3024672 -0.6945592
0003a0 5c 1c 08 c0 90 0c 1e bf c8 a1 a0 3e d8 34 f4 3e
       -2.126731 -0.6173792 0.3137343 0.47696567
0003b0 21 77 8d 3e 4e fb 1e be 93 6a 4d bf 0e 56 bd bf
       0.2762995 -0.15525553 -0.80240744 -1.4791887
0003c0 f9 a7 92 bf 9f 72 af be 2e ac 01 3e b6 80 33 3f
       -1.1457511 -0.34267136 0.12663338 0.7011827
0003d0 1a e3 53 be ab 22 ac 3d 49 53 c1 bd 47 e1 1a be
       -0.20692101 0.0840505 -0.094397135 -0.15124999
0003e0 44 93 61 3f 9b 21 9b 3f 72 7c 91 be 07 1b 92 3c
       0.88115335 1.211963 -0.28415257 0.017835153
0003f0 eb 1b 50 bc 4c ca 85 bf f3 05 c7 bd 71 1c 30 be
       -0.012701969 -1.0452361 -0.097179316 -0.1719835

bias f4 [32]
000000 cc d3 73 c0 46 76 a0 40 5f 24 a0 c0 a8 ee 08 c0
       -3.809802 5.0144377 -5.00444 -2.1395664
000010 da 77 50 c0 60 81 93 c0 ae ec c5 c0 a7 2b 45 c0
       -3.2573152 -4.609543 -6.1851416 -3.0807893
000020 79 e7 81 c0 cc 44 a1 c0 6b 1d bb bf 19 88 71 c0
       -4.059506 -5.039648 -1.4618353 -3.7739317
000030 c5 0d 1e c0 b5 2c a8 c0 66 0a 05 c0 4a d2 ac c0
       -2.4695904 -5.2554574 -2.0787597 -5.40067
000040 9a df 9a c0 fe 7f cf c0 82 76 44 c0 cb 51 c9 c0
       -4.839795 -6.484374 -3.0697331 -6.2912345
000050 2e aa fa bf 85 a4 cd bf 23 8c 93 c0 cf 05 9c c0
       -1.9583185 -1.6065832 -4.6108565 -4.875709
000060 c1 99 12 c0 2a 88 bb c0 cd 06 8f c0 3b 63 a4 c0
       -2.2906344 -5.8603716 -4.46958 -5.137113
000070 1e 46 a2 c0 54 90 2e c0 7d 30 71 bd 8f 36 2a c0
       -5.071059 -2.727559 -0.058884133 -2.65958

weight f4 [1, 32]
000000 3a 0f 84 bd 92 a6 e3 3d cc 5b e0 3d be ad ca 3d
       -0.06448217 0.11115755 0.10955009 0.0989642
000010 fa cd c1 bd 2d 3a 73 3e 85 ee d8 3b 3f 39 61 3d
       -0.09463115 0.23752661 0.0066202306 0.054986235
000020 d7 4f 4a be 88 a7 cd 3b bc ca 81 3d f7 14 89 bd
       -0.19757019 0.006276075 0.06337497 -0.06693452
000030 ca ce f2 3c 2b 43 33 bd e4 cf ab bc 2a d6 09 3e
       0.02963962 -0.04376523 -0.020973153 0.13460603
000040 4e 16 54 3d 41 c5 7b bd 8d 54 9a 3d 20 c8 09 3e
       0.051779084 -0.061467413 0.07535658 0.13455248
000050 75 28 ef 3d de 88 0b 3e 0d 73 27 3e 27 0f 71 bd
       0.116776384 0.1362643 0.16352482 -0.05885234
000060 30 74 79 3c c5 92 8d bd ae 52 a4 3d 14 2d 6e 3e
       0.015225455 -0.0691276 0.080235824 0.23259383
000070 05 bd 6c 3c 75 da 62 3d f6 2a 5b be c2 70 be 3d
       0.014449363 0.055384118 -0.21403107 0.092988506
